car_deployment/policy/10_10_18-26-46_model_5000.pt (torch, 740222 bytes, 8 tensors)

weight f4 [512, 33]
0	0xbde7db8f	-0.11321174
1	0xbcd851d0	-0.026406199
2	0xbd720130	-0.059083164
3	0xbca98709	-0.020694273
4	0x3dec4177	0.11535924
5	0x3d997d2e	0.07494579
6	0x3df70047	0.120606
7	0xbebb9a32	-0.3664108
8	0xbd121b73	-0.03567071
9	0xbec25eb9	-0.37962893
10	0x3dc97b56	0.098379776
11	0x3ceaed7e	0.028677698
12	0xbe2e32a0	-0.170115
13	0x3e01b7ec	0.12667817
14	0xbddbd256	-0.10733478
15	0x3d31b523	0.043385636
16	0x3ca84d00	0.020544529
17	0x3daa0ab4	0.08302823
18	0xbde82303	-0.11334803
19	0x3dab187b	0.08354279
20	0x3e95b3e5	0.2923881
21	0xbd9dafe6	-0.076995656
22	0x3dbe2442	0.092842594
23	0x3dab303b	0.083588086
24	0x3e2b795f	0.16745518
25	0xbca63c9f	-0.020292578
26	0xbdbc810e	-0.09204303
27	0xbd99674d	-0.07490406
28	0xbdf27ed4	-0.11840597
29	0xbcd0fdf5	-0.025511721
30	0x3e0f3099	0.13983382
31	0x3e07cdae	0.13262054
32	0x3da8e01c	0.082458705
33	0xbabf6217	-0.0014601377
34	0xbe4e0624	-0.2011953
35	0x3ccd6fe3	0.025077766
36	0x3e98f5a6	0.29874915
37	0x3c0cea0d	0.008600724
38	0xbdd364ce	-0.10321961
39	0x3ea03ad2	0.31294876
40	0x3eaacd66	0.33359832
41	0xbd8a30f0	-0.06747615
42	0xbeab5118	-0.33460307
43	0x3e9fded1	0.31224683
44	0x3c2fb476	0.010724178
45	0xbe7fae98	-0.24968946
46	0x3d24be3b	0.04022048
47	0xbe5dce03	-0.21660618
48	0x3a25527e	0.0006306543
49	0x3e18b3ca	0.14912334
50	0xbd64b6f1	-0.05583853
51	0x3c9fb25c	0.019494228
52	0xbe0ad9c8	-0.1355964
53	0xbced35b5	-0.028956274
54	0xbd6856ec	-0.05672352
55	0x3c272790	0.0102023035
56	0xbcfa577e	-0.030559298
57	0xbda494b6	-0.08036177
58	0xbd854870	-0.06507957
59	0xbdeb10c1	-0.11477805
60	0xbd89324f	-0.06699049
61	0xbd7a3650	-0.061086953
62	0x3e36322d	0.17792578
63	0xbd409682	-0.047018535
64	0xbdbe4d01	-0.09292031
65	0x3e1a948e	0.15095732
66	0x3e21784e	0.15768549
67	0x3e5da025	0.21643122
68	0xbf00e856	-0.50354517
69	0xbe0bf7f9	-0.13668813
70	0x38af5c9d	8.361901e-05
71	0x3cd800b9	0.026367532
72	0xbd888396	-0.06665723
73	0x3ea9d224	0.33168137
74	0x3d6ce4a0	0.05783522
75	0xbed4937a	-0.41518766
76	0x3e6e6443	0.23280434
77	0xbe87bc25	-0.2651073
78	0xbc8dbe86	-0.017302763
79	0x3dffb644	0.12485936
80	0xbd6df518	-0.058095068
81	0x3d40d1f0	0.047075212
82	0x3d2ecd4c	0.042676255
83	0x3e69b344	0.2282229
84	0x3d048ec4	0.032362714
85	0x3e0676ec	0.13131303
86	0x3ba4fc68	0.005034972
87	0xbc4dfe12	-0.012572782
88	0x3ce322f1	0.027726622
89	0xbd5c4028	-0.05377212
90	0x3d52d20b	0.051469844
91	0xbe0d1482	-0.13777354
92	0x3cf85cdd	0.030317718
93	0xbe478203	-0.1948319
94	0x3c92f0bf	0.017937062
95	0xbe46d6ab	-0.19417827
96	0x3d9f45f7	0.077770166
97	0xbd64fb8e	-0.055903964
98	0xbcb1b8e0	-0.0216946
99	0xbcaeea6b	-0.021352014
100	0xbe947a37	-0.28999493
101	0xbdba34ea	-0.09092124
102	0x3e0cb4db	0.13740866
103	0x3e910d1d	0.28330317
104	0x3d20d935	0.039269645
105	0x3ce937c1	0.028468968
106	0x3e21bc2c	0.15794438
107	0x3c3e6c8f	0.011622562
108	0x3ca61d2d	0.020277584
109	0xbe0eeb47	-0.13956939
110	0x3e0cf054	0.13763553
111	0xbe0a4601	-0.13503267
112	0x3e151020	0.14556932
113	0xbe3431a0	-0.17597055
114	0xbe09c112	-0.13452557
115	0xbd937add	-0.07201169
116	0x3de13898	0.109971225
117	0x3c99d14e	0.018776562
118	0x3c9de699	0.019274997
119	0x3e4aaf69	0.19793476
120	0xbe3ccc7b	-0.18437378
121	0xbe2207b9	-0.15823258
122	0xbde6b439	-0.112648435
123	0xbd8bf5b3	-0.06833973
124	0xbdc4eb90	-0.096152425
125	0xbe0a708f	-0.135195
126	0xbdb40978	-0.087908685
127	0xbcee710c	-0.02910664
128	0x3dd30a98	0.10304755
129	0xbd629a81	-0.055323128
130	0x3d9bf134	0.07614365
131	0xbe2498bb	-0.16073887
132	0xbd896749	-0.06709153
133	0xbe51e7ea	-0.20498624
134	0xbdad495f	-0.0846126
135	0xbd8ed31d	-0.069738604
136	0x3e19f99e	0.15036628
137	0x3e14222c	0.1446616
138	0x3f00fb5a	0.5038353
139	0xbef8acce	-0.4856934
140	0xbcbfe776	-0.023425799
141	0xbc2f8c5a	-0.010714615
142	0xbdb19d64	-0.08672598
143	0xbde36521	-0.11103273
144	0xbdd94a9d	-0.106099345
145	0x3dcd61e9	0.100284405
146	0x3a3e664b	0.00072631676
147	0x3e5002c0	0.20313549
148	0xbab252ef	-0.0013605038
149	0x3e24e771	0.16103913
150	0x3cb5635d	0.022142107
151	0xbdba97d2	-0.09110989
152	0x3d440f30	0.047866046
153	0xbe14dbec	-0.14537019
154	0xbd84edd6	-0.06490676
155	0xbdc7cfb0	-0.0975641
156	0xbd35327c	-0.0442376
157	0xbcabc7ef	-0.02096936
158	0x3cd72ed5	0.026267448
159	0xbdc6544c	-0.09684047
160	0x3d1fcb33	0.039012145
161	0x3ce98bf2	0.028509114
162	0x3abf805a	0.0014610395
163	0x3e31ff04	0.17382437
164	0x3e1a8c65	0.15092619
165	0x3e4172e8	0.1889149
166	0xbd5d48d3	-0.05402453
167	0x3d36a887	0.044594314
168	0xbe862d4e	-0.2620644
169	0x3e2952f5	0.16535552
170	0x3ecc4ce3	0.3990241
171	0x3d4306fd	0.047614086
172	0x3d9e44f2	0.07727994
173	0x3df81cc9	0.12114865
174	0xbd871ff6	-0.06597893
175	0xbd791e13	-0.060819697
176	0xbe97110d	-0.29505196
177	0xbd2ce262	-0.042208083
178	0xbe4626f7	-0.19350801
179	0x3e82ca7c	0.25545108
180	0xbdfa495c	-0.122210234
181	0x3e00857c	0.1255092
182	0xbb04128e	-0.002015266
183	0x3e4647e0	0.19363356
184	0x3dc610ec	0.09671196
185	0xbcce6250	-0.025193363
186	0x3dadd012	0.08486952
187	0xbd61dab5	-0.055140216
188	0xbdd979ef	-0.1061896
189	0xbdcfe393	-0.10150828
190	0xbce2c3d7	-0.027681274
191	0x3b96ec5e	0.004605814
192	0xbdb1bc39	-0.08678479
193	0xbd11e562	-0.035619147
194	0xbd167010	-0.036727965
195	0xbd1b0171	-0.03784317
196	0xbdb6fbac	-0.08934721
197	0xbd562ae0	-0.052286983
198	0xbe80ad83	-0.2513238
199	0xbdea7684	-0.11448386
200	0xbcdeb381	-0.027185204
201	0x3e6c992a	0.23105302
202	0xbd83983a	-0.06425519
203	0xbdf15555	-0.11783854
204	0x3eb5a07e	0.35474008
205	0x3f3420aa	0.7036234
206	0xbd977e9c	-0.07397196
207	0x3c6bc3db	0.014389957
208	0x3d97f322	0.07419421
209	0xbdc36475	-0.09540645
210	0xbdad8a45	-0.084736384
211	0xbdb0ab9a	-0.086264804
212	0xbc104427	-0.008805311
213	0x3e4d06ae	0.2002208
214	0xbc6ab307	-0.01432491
215	0xbc755444	-0.014973704
216	0xbdef9dc5	-0.11700014
217	0x3d3ab5a4	0.045583382
218	0x3b99de39	0.0046956805
219	0x3d5dd91e	0.054162137
220	0xbe2565d8	-0.16152132
221	0x3ca75301	0.020425322
222	0x39358ab3	0.00017313175
223	0xbdd7d847	-0.105392985
224	0x3d95076a	0.07276805
225	0xbdb9db7e	-0.09075068
226	0xbe255674	-0.1614626
227	0xbe3c5798	-0.1839279
228	0xbcfd7c8e	-0.030943181
229	0xbe1ab9f2	-0.15109995
230	0x3b34503f	0.002751365
231	0x3e3c6648	0.18398392
232	0xbdd24a2e	-0.10268055
233	0xbdcf1df1	-0.10113133
234	0x3e9b7a69	0.3036683
235	0x3d628aa9	0.055308018
236	0x3e4a4c1d	0.19755597
237	0x3e05d1d0	0.13068318
238	0x3d965b83	0.07341673
239	0xbe43d7f9	-0.19125356
240	0x3d6949c9	0.056955133
241	0x3e924263	0.28566274
242	0xbe0ccf69	-0.13750996
243	0xbec8871b	-0.39165577
244	0x3e0b9636	0.1363152
245	0x3e62fe26	0.22167262
246	0x3e7f2f97	0.24920498
247	0x3bbe896d	0.0058147223
248	0xbb5d5a24	-0.0033775652
249	0x3baf5857	0.005351107
250	0x3d9a128f	0.07523071
251	0xbc59a98e	-0.013285054
252	0x3dd81b26	0.10552053
253	0xbdfd58d2	-0.12370457
254	0x3bfd56c2	0.0077312896
255	0xbe935f40	-0.28783607

bias f4 [512]
0	0x3b3994ad	0.0028317377
1	0x3e1823d2	0.14857414
2	0xbe5467e1	-0.20742752
3	0xbe7a5519	-0.24446525
4	0x3de0001a	0.10937519
5	0xbe268c31	-0.16264416
6	0xbddc5fa2	-0.10760428
7	0x3adcc282	0.0016842636
8	0xbeb98c3c	-0.36239803
9	0x3beb5292	0.007181474
10	0xbb8dbb0a	-0.0043252753
11	0x3d334024	0.04376234
12	0x3da5a723	0.080885194
13	0x3dbb686b	0.091507755
14	0x3dc4888a	0.09596355
15	0xbd3ed649	-0.046591077
16	0x3e2a5126	0.16632518
17	0xbdb1cf3b	-0.08682104
18	0x3d26d276	0.040728055
19	0x3cb19ff9	0.021682726
20	0xbcefa2f9	-0.029252516
21	0x3e17bace	0.14817354
22	0x3d2877c5	0.041129846
23	0x3cc541f4	0.0240793
24	0x3d639a84	0.05556728
25	0xbd130776	-0.035895787
26	0x3dcf8fa2	0.10134818
27	0xbde4a7db	-0.111648284
28	0x3e036b1c	0.12833828
29	0xbc2afbd3	-0.010436016
30	0x3e28c62b	0.16481845
31	0xbdd76b4b	-0.105185114
32	0xbd65cade	-0.056101672
33	0x3c753e45	0.0149684595
34	0xbe221d13	-0.15831403
35	0xbde05153	-0.10953011
36	0xbdcbf0ea	-0.0995806
37	0x3d88c6fa	0.06678577
38	0x3d953846	0.07286124
39	0xbdc72f09	-0.09725768
40	0xbd965769	-0.07340891
41	0xbd877174	-0.06613436
42	0x3d597765	0.05309238
43	0xbe70865e	-0.23488757
44	0xbdb01af3	-0.0859889
45	0xbdb23ad8	-0.0870263
46	0x3d7df230	0.061998546
47	0xbe0de11a	-0.138554
48	0xbcbbfbc7	-0.022947205
49	0x3e256ddb	0.16155188
50	0x3d57ca16	0.05268296
51	0xbe9b4047	-0.30322477
52	0xbe4326e6	-0.19057807
53	0x3da0947c	0.07840821
54	0xbe7d043b	-0.24708645
55	0xbe2ae03c	-0.16687101
56	0x3deabd50	0.1146189
57	0x3e653204	0.2238236
58	0xbdf4138f	-0.11917793
59	0x3e085c27	0.13316403
60	0x3dc61f38	0.09673923
61	0x3d8b4f78	0.06802267
62	0x3d7a22c2	0.061068304
63	0x3dfdabd8	0.12386292
64	0x3e20d9db	0.15708105
65	0xbe019038	-0.12652671
66	0x3e367329	0.17817368
67	0x3d22dda6	0.03976216
68	0x3dbfebfb	0.093711816
69	0xbe429eca	-0.19005886
70	0xbde90156	-0.11377208
71	0xbdfb862e	-0.12281452
72	0xbe5f362b	-0.21798007
73	0x3d794cf4	0.060864404
74	0xbe172918	-0.1476177
75	0x3e35622f	0.17713235
76	0xbc451d31	-0.012030886
77	0xbe4325a8	-0.19057333
78	0x3dfe793c	0.12425467
79	0xbd34b7f4	-0.044120744
80	0x3e31b399	0.17353667
81	0xbc2b408b	-0.0104524
82	0xbe37b29d	-0.1793923
83	0x3c8fb5cd	0.017542744
84	0xbe1d073a	-0.15334788
85	0xbe2aeb53	-0.16691332
86	0x3db7a8a5	0.08967713
87	0x3e2463e3	0.16053729
88	0xbe1ce09d	-0.15320058
89	0x3e50b941	0.20383169
90	0xbe09bd70	-0.13451171
91	0x3cdabd2b	0.02670153
92	0xbd43a578	-0.047765225
93	0x3ddeba60	0.10875392
94	0xbd57b4eb	-0.05266277
95	0x3df2c6dd	0.118543364
96	0xbe4f06e0	-0.20217466
97	0xbdb51be7	-0.088432126
98	0x3db6021d	0.08887122
99	0x3e54b194	0.20770866
100	0xbe7225d9	-0.2364725
101	0x3dd3bd20	0.10338807
102	0xbd668d9d	-0.056287397
103	0xbda11e3f	-0.07867097
104	0x3d11d753	0.03560574
105	0xbec33094	-0.38123
106	0x3d162e1f	0.03666508
107	0xbd8a2e0b	-0.06747063
108	0xbd66714d	-0.056260396
109	0xbc3f4088	-0.0116731
110	0xbdcc51c6	-0.099765345
111	0xbe10a948	-0.14127076
112	0xbe1c5b14	-0.15269119
113	0xbe962358	-0.2932384
114	0x3d9e67eb	0.077346645
115	0xbd9ccedb	-0.07656642
116	0xbe7cbed0	-0.24682164
117	0x3d1a034f	0.03760081
118	0x3bb30826	0.005463618
119	0x3e1650e7	0.146793
120	0xbe083055	-0.13299687
121	0x3d76c2b7	0.06024429
122	0xbe30f986	-0.17282686
123	0xbde04816	-0.10951249
124	0x3e17c31e	0.14820525
125	0x3c908ef6	0.017646294
126	0x3d5ea8d0	0.05436021
127	0xbd5f673c	-0.05454181
128	0xbb081d5e	-0.0020769457
129	0xbdec51f2	-0.11539067
130	0xbe7a3747	-0.24435149
131	0x3e382a9c	0.17985004
132	0xbe539df5	-0.20665725
133	0x3c9195cc	0.017771624
134	0x3d3a0360	0.045413375
135	0xbd9a73e0	-0.07541633
136	0x3d894880	0.067032814
137	0xbd943acd	-0.07237778
138	0xbdbef957	-0.093249016
139	0x3dae49a8	0.085101426
140	0xbea36f2b	-0.31920752
141	0xbe2d4c4c	-0.16923636
142	0xbe36efd0	-0.17864919
143	0x3bbc038d	0.005737728
144	0xbd669829	-0.056297455
145	0xbea316c4	-0.31853306
146	0xbe165609	-0.14681257
147	0xbd96e5d3	-0.07368054
148	0xbe32666a	-0.1742188
149	0x3d5d690c	0.05405526
150	0xbd77c9d1	-0.0604952
151	0xbe86a611	-0.26298574
152	0xbc825024	-0.015907355
153	0x3e0b8385	0.1362439
154	0xbe70c20d	-0.23511524
155	0x3d4b93a0	0.049701333
156	0x3dd924ce	0.10602723
157	0x3cd1e08a	0.025619764
158	0xbdeb300d	-0.11483774
159	0xbdc0d976	-0.094164774
160	0x3e404c11	0.18779017
161	0x3dc9c220	0.098514795
162	0xbe0d4be9	-0.13798489
163	0x3da44747	0.080214076
164	0x3e5cdb17	0.21567951
165	0x3df65ddd	0.12029622
166	0x3d76dac9	0.060267244
167	0x3d9579c0	0.072986126
168	0x3ce8686d	0.028370107
169	0xbdf5625d	-0.11981652
170	0x3e4bdfea	0.19909635
171	0xbe05ab3c	-0.13053602
172	0x3d00e644	0.0314696
173	0xbd9cc7fd	-0.07655332
174	0xbd42c605	-0.047552127
175	0xbe96e860	-0.29474163
176	0xbdbda284	-0.09259513
177	0xbe01ee38	-0.1268853
178	0xbdef48c9	-0.116838045
179	0xbe5925fa	-0.21205893
180	0x3d6c956d	0.05775969
181	0x3e345bc2	0.17613128
182	0xbe1c3a32	-0.15256575
183	0xbb1386bb	-0.0022510726
184	0x3d86e2f6	0.06586258
185	0x3e3e98a9	0.18612923
186	0xbdcdade8	-0.100429356
187	0xbdb5812a	-0.08862527
188	0xbd083a35	-0.033258636
189	0xbe0ab2a5	-0.1354471
190	0xbda8d6f1	-0.08244122
191	0x3dffc13e	0.1248803
192	0xbdce448c	-0.10071668
193	0x3cff4f13	0.031165635
194	0xbcc779a6	-0.024349999
195	0xbe63846c	-0.22218484
196	0xbcb263fd	-0.021776194
197	0x3dcbb691	0.09946931
198	0x3c3c050a	0.011475811
199	0xbe3d4ccf	-0.18486331
200	0xbdd2a206	-0.1028481
201	0x3e40c22d	0.18824072
202	0xbd2e87fe	-0.04261016
203	0x3e381fa2	0.17980817
204	0xbd1c3827	-0.03813949
205	0x3dc46fc4	0.0959163
206	0x3e01664f	0.12636684
207	0xbef7538e	-0.48305935
208	0xbe39c620	-0.18141985
209	0xbe067edc	-0.1313433
210	0xbd507ff3	-0.050903272
211	0x3e114640	0.14186954
212	0xbe230185	-0.15918548
213	0x3d802e14	0.06258789
214	0xbdb36ee7	-0.08761387
215	0xbd92430c	-0.071416944
216	0x3d1d0e45	0.038343687
217	0x3dc555cc	0.09635505
218	0x3e714a0f	0.23563407
219	0xbe50b463	-0.20381312
220	0xbdcd9b2b	-0.100393616
221	0x3e85abd8	0.2610767
222	0x3d75f987	0.06005242
223	0x3e39ffab	0.18163936
224	0xbe9d74c0	-0.30753136
225	0xbd730910	-0.059334815
226	0xbcf1d7f3	-0.029521918
227	0x3cfbfcf9	0.030760275
228	0xbe06dea1	-0.13170864
229	0xbcb81f26	-0.02247579
230	0xbbddbeb5	-0.006767119
231	0xbd224f5f	-0.039626475
232	0xbd63129d	-0.055437673
233	0x3e330e7c	0.17485994
234	0xbeb2e301	-0.34938815
235	0xbd607cad	-0.0548064
236	0x3dc16024	0.094421655
237	0xbe2f1748	-0.17098725
238	0x3ce9b8fc	0.02853059
239	0xbdacff65	-0.0844715
240	0xbd0aa325	-0.033846993
241	0xbe58c03b	-0.2116708
242	0xbe1a02d2	-0.15040138
243	0x3e18049d	0.1484551
244	0x3dd38922	0.103288904
245	0x3e637a6d	0.2221467
246	0xbe0b6551	-0.13612868
247	0xbe257e14	-0.16161376
248	0xbd3e83c0	-0.046512365
249	0xbce29f8e	-0.027663972
250	0xbda50079	-0.08056731
251	0x3ca9ee7f	0.020743607
252	0x3e3ecee8	0.18633616
253	0xbd825552	-0.0636393
254	0x3c4b474a	0.012407133
255	0xbdfd7a36	-0.123768255

weight f4 [256, 512]
0	0x3cd8634f	0.026414542
1	0xbdd2339a	-0.102637485
2	0xbd2dbee3	-0.042418372
3	0xbcc55ed8	-0.024093077
4	0x3d8c06f4	0.06837264
5	0xbd28fd1f	-0.04125702
6	0xbbce798a	-0.0063011097
7	0xbdc9ef8e	-0.098601446
8	0x3c0f65c1	0.008752287
9	0xbd99538e	-0.0748664
10	0xbd99d507	-0.07511335
11	0x3d021796	0.031760775
12	0x3d0789d6	0.033090435
13	0xbd969922	-0.073534265
14	0x3ca1e790	0.019763738
15	0x3de93f7a	0.1138906
16	0x3c451742	0.012029471
17	0xbd4ac62a	-0.04950539
18	0xbdc698cd	-0.09697113
19	0xbcf3a706	-0.029742729
20	0x3d2f6b89	0.042827163
21	0xbb869967	-0.0041076425
22	0xbccd30c2	-0.025047664
23	0xbd5bf423	-0.053699624
24	0x3cd50c27	0.026006771
25	0x3cafe61b	0.021472028
26	0xbd8cb5cc	-0.068706125
27	0xbd6448ea	-0.0557336
28	0x3d3fae5d	0.046797145
29	0x3d646316	0.05575856
30	0x3dc6f70d	0.0971509
31	0xbdc8b52f	-0.09800183
32	0xbbb4977b	-0.005511222
33	0xbd896f1d	-0.06710646
34	0x3d5ddf15	0.054167826
35	0xbd1f1d4a	-0.03884629
36	0xbd2c499c	-0.042062387
37	0xbd4442d4	-0.047915295
38	0x3dabfd7a	0.08397956
39	0x3d1dab2d	0.038493324
40	0xbd2daa5f	-0.042398807
41	0xbdb14cd8	-0.08657235
42	0xbd129af7	-0.035792317
43	0xbbecae57	-0.0072229314
44	0xbcc6b371	-0.024255486
45	0x3d2781d9	0.040895317
46	0xbdbb463b	-0.09144255
47	0xbd29937a	-0.04140041
48	0xbd205122	-0.039139874
49	0xbd61cd64	-0.055127516
50	0x3d5c2071	0.053741876
51	0xbd4c991a	-0.049950697
52	0xbd3e1540	-0.046406984
53	0x3d85979c	0.06523058
54	0xbc3d91a4	-0.011570368
55	0xbcac3390	-0.02102068
56	0x3c98356b	0.01858016
57	0xbd0d18d2	-0.0344475
58	0x3d535e9d	0.051603902
59	0xbd4e445c	-0.05035816
60	0xbd80fb53	-0.06297936
61	0xbe358bf0	-0.17729163
62	0x3d74bef4	0.05975242
63	0xbda766b9	-0.0817389
64	0x3d52cdeb	0.05146591
65	0x3ca0dca6	0.019636463
66	0x3b074854	0.0020642476
67	0xbd6e8337	-0.058230605
68	0xbc7cd196	-0.015430829
69	0xbd8afd54	-0.067866
70	0x3cedd6e7	0.029033137
71	0xbc8c7bd5	-0.017148891
72	0xbc017ca3	-0.007903251
73	0xbd0145f1	-0.031560842
74	0xbd0b3e5c	-0.033995017
75	0xbcce0e63	-0.025153344
76	0xbd05abb8	-0.032634467
77	0xbc86bbfc	-0.01644706
78	0x39e73e60	0.00044106226
79	0x3c75484a	0.014970848
80	0x3d82ee77	0.0639314
81	0xbd4218cb	-0.047386926
82	0xbdf1b0f7	-0.118013315
83	0xbc302c6f	-0.010752781
84	0xbd9d9c77	-0.07695859
85	0xbcab8d41	-0.020941379
86	0xbd8a13a2	-0.06742026
87	0xbe1bcb53	-0.15214281
88	0xbdf30130	-0.11865461
89	0xbd046773	-0.03232522
90	0xbda17a4e	-0.07884656
91	0xbe3d9db1	-0.18517186
92	0x3d5b880e	0.05359655
93	0xbd339af9	-0.043848965
94	0xbdbdb2b0	-0.092625976
95	0x3d9a064b	0.075207315
96	0x3d679763	0.056540858
97	0x3c041a25	0.008062874
98	0xbc041486	-0.008061534
99	0x3d8d53a2	0.06900717
100	0x3d39c9f0	0.0453586
101	0xbdb5a03f	-0.08868455
102	0xbd851925	-0.064989366
103	0xbca7d057	-0.020485086
104	0xbd5bd7ed	-0.05367272
105	0x3d753c4d	0.05987196
106	0xbcd23295	-0.025658885
107	0xbd6bf1ad	-0.057603527
108	0xbda75f07	-0.08172422
109	0xbd1029d8	-0.035196155
110	0x3d3ac963	0.045602214
111	0xbcfc7664	-0.030818172
112	0xbce92e09	-0.028464334
113	0x3c4363ca	0.011925647
114	0x3ca4d589	0.020121353
115	0x3ca51f1a	0.020156432
116	0xbd8730cb	-0.066011034
117	0xbdb30dff	-0.08742904
118	0xbd258673	-0.040411424
119	0xbbb5964f	-0.0055416
120	0xbd06adf4	-0.03288074
121	0xbc537624	-0.012906585
122	0xbd0274eb	-0.031849783
123	0xbd85b186	-0.065280005
124	0xb98c1f7e	-0.00026726344
125	0xbd404eee	-0.046950273
126	0xbcb8e5d6	-0.022570532
127	0x3d26701e	0.040634267
128	0xbdbf7086	-0.09347634
129	0x3d308a3c	0.04310058
130	0xbcd10adc	-0.025517873
131	0xbe045df2	-0.12926462
132	0x3ceafa9b	0.028683951
133	0x3c213597	0.009839437
134	0xbc8fbe80	-0.017546892
135	0xbde34ab5	-0.110982336
136	0xbcb0e1b8	-0.021592006
137	0xbd6c70d7	-0.0577248
138	0xbcf05b72	-0.02934048
139	0xbe64ede6	-0.22356376
140	0xbdab0a24	-0.083515435
141	0xbd815330	-0.06314695
142	0xbd41512e	-0.04719656
143	0x3d6b1e1d	0.057401765
144	0x3daf0317	0.08545511
145	0xbcf8ee3b	-0.030387035
146	0xbcac253b	-0.021013847
147	0xba2d0717	-0.0006600483
148	0xbd9c9740	-0.07646036
149	0xbd8a8dfe	-0.06765364
150	0xbd361e77	-0.044462647
151	0x3d7a83e4	0.061160937
152	0xbd35ae70	-0.04435581
153	0x3d256eb9	0.040388796
154	0x3cf3521e	0.029702242
155	0x3d9fa305	0.077947654
156	0xbc401e5e	-0.01172599
157	0xbd03fa4b	-0.03222112
158	0xbc2acdf5	-0.010425081
159	0xbd3d73ef	-0.04625314
160	0x3d1b405d	0.03790318
161	0xbd7f7f05	-0.062376995
162	0xbd4a2ad0	-0.049357235
163	0xbd3a898b	-0.045541327
164	0xbd930dff	-0.07180404
165	0xbdc57118	-0.096407115
166	0xbd8993df	-0.06717657
167	0xbc93bd7b	-0.018034687
168	0xbdb5fa05	-0.08885578
169	0x3da630db	0.08114787
170	0xbced6ccb	-0.02898254
171	0x3d12894c	0.035775468
172	0x3cb52550	0.022112519
173	0x3d69f6de	0.057120197
174	0xbc11c303	-0.008896592
175	0x3c49bc22	0.012312921
176	0xbd8a2c29	-0.06746704
177	0x3c05b363	0.008160445
178	0xbd769ce5	-0.06020822
179	0x3c6b092d	0.014345449
180	0x3dd30866	0.10304336
181	0x3d605069	0.054764185
182	0xbc16081a	-0.009157205
183	0xbdf80c86	-0.12111764
184	0xbdc2ba88	-0.09508234
185	0x3d783b31	0.060603324
186	0xbcd421fc	-0.025895111
187	0xbd7d400d	-0.06182866
188	0xbd5f5783	-0.054526817
189	0x3d138161	0.036012057
190	0xbe06ad49	-0.1315204
191	0x3ccb52c1	0.024819734
192	0xbdf254dc	-0.11832592
193	0xbdedc000	-0.11608887
194	0x3ae93897	0.0017793354
195	0x3c096fdf	0.008388489
196	0x3d646848	0.055763513
197	0x3c34fd00	0.011046648
198	0xbc3aa554	-0.011391956
199	0xbdb72ac0	-0.08943701
200	0xbd13117a	-0.03590534
201	0xbdb49919	-0.088182636
202	0xb9ec2895	-0.00045043664
203	0xbd442865	-0.047890086
204	0x3c1d17ff	0.009588241
205	0xbd108043	-0.03527857
206	0xbd903db3	-0.07043018
207	0xbd1b3e5f	-0.03790128
208	0x3cbd07d9	0.023075031
209	0xbd42e41b	-0.04758082
210	0x3d8eb5bc	0.06968257
211	0xbd7620d7	-0.060089912
212	0x3d6440d6	0.055725895
213	0x3db6285d	0.088944174
214	0xbc9d5beb	-0.019208869
215	0xbda9714f	-0.08273565
216	0xbd10a0f8	-0.03530976
217	0xbe032f1e	-0.12810943
218	0xbd21c80e	-0.039497428
219	0x3c3708d1	0.011171536
220	0xbd4ba015	-0.049713213
221	0x3ccefcf8	0.02526711
222	0xbd1dc589	-0.038518462
223	0xbc06ecea	-0.008235196
224	0xbceab251	-0.028649481
225	0x3dc4fda3	0.0961869
226	0xbd7f313e	-0.06230282
227	0xbd7b777b	-0.061393242
228	0x3d20f7d7	0.03929886
229	0xbd78afe2	-0.06071461
230	0x3dc25c94	0.09490314
231	0xbd4f21d9	-0.05056939
232	0xbbf10d6a	-0.0073563354
233	0xbdce662f	-0.10078084
234	0xbc924d48	-0.017859116
235	0xbd653d53	-0.055966686
236	0xbdcf5ba4	-0.10124901
237	0x3c9f7816	0.019466441
238	0x3dd0dc5e	0.10198282
239	0x3cded354	0.027200378
240	0xbd2d3fb1	-0.04229707
241	0xbd99966c	-0.07499394
242	0x3d67ed3c	0.05662273
243	0xbdd840b6	-0.10559218
244	0xbd40cd38	-0.04707071
245	0xbda74623	-0.081676744
246	0x3c8a4391	0.016877921
247	0xbc048be8	-0.008089997
248	0xbd96ccfb	-0.07363316
249	0xbd830d6f	-0.06399047
250	0x3d8a090a	0.06740005
251	0xbcb8f0f3	-0.022575831
252	0xbdc3cb8f	-0.0956031
253	0xbd1e2718	-0.0386115
254	0xbca84539	-0.02054082
255	0x3ce5793a	0.028011907

bias f4 [256]
0	0xbc9a360c	-0.0188246
1	0xbd95cd26	-0.073145196
2	0xbd0f68bf	-0.035012003
3	0xbc1ad046	-0.00944907
4	0xbdaa7fd9	-0.08325166
5	0xbd87b753	-0.06626763
6	0x3d7997f1	0.06093592
7	0xbd8e9187	-0.06961351
8	0xbd731ef6	-0.0593557
9	0xbbd1381f	-0.006384864
10	0x3d2fb173	0.04289384
11	0x3c4850ec	0.0122263245
12	0xbc84351d	-0.016138608
13	0x3b8417fe	0.0040311804
14	0xbc628227	-0.013824976
15	0xbda75721	-0.081709154
16	0xbd96a218	-0.07355136
17	0x3c175765	0.009237145
18	0xbcbeffa3	-0.023315256
19	0xbd03ab72	-0.032145925
20	0x3d355629	0.04427162
21	0xbd1c35d1	-0.03813726
22	0xbc921a2d	-0.017834747
23	0xbbd8247e	-0.006596147
24	0xbd9a496e	-0.07533537
25	0xbc6c1067	-0.0144082075
26	0xbc95d79b	-0.018291285
27	0xbdb1da97	-0.08684271
28	0x3bd32d94	0.0064446423
29	0xbdc7bad8	-0.097524345
30	0x3d61ffed	0.05517571
31	0xbe2ec53c	-0.17067426
32	0xbd4e06ac	-0.05029933
33	0xbb276b95	-0.0025546302
34	0xbe069f1a	-0.1314663
35	0x3d88ea6e	0.06685339
36	0xbd361238	-0.04445097
37	0xbdacb949	-0.08433778
38	0xbcd41980	-0.025891066
39	0x3d8af125	0.06784276
40	0xba9865b6	-0.0011626992
41	0xbd74b9c6	-0.05974748
42	0xbdf7a3f3	-0.12091818
43	0xbde29c4c	-0.110649675
44	0xbd5d9812	-0.054100104
45	0xbd63e750	-0.05564052
46	0xbc1f3516	-0.0097172465
47	0xbd83d874	-0.064377695
48	0xbd9b1503	-0.07572367
49	0xbe119db4	-0.14220315
50	0xbd796f1c	-0.060896978
51	0xbc0f262b	-0.008737127
52	0xbe4710eb	-0.19440047
53	0xbcac046c	-0.020998202
54	0x3cf10838	0.029422864
55	0xbcd8c585	-0.026461372
56	0x3dff9c44	0.12480977
57	0xbdf69438	-0.12039989
58	0xbc8cc4cb	-0.017183682
59	0xbe06a693	-0.1314948
60	0x3ce1f8af	0.027584402
61	0x3dac4cb0	0.084130645
62	0x3bde6f4d	0.0067881704
63	0x3bf702c6	0.0075381724
64	0x3a6c57fa	0.0009015795
65	0xbd6071b7	-0.054795947
66	0xbd1a44f2	-0.037663408
67	0xbdea5a39	-0.1144299
68	0xbcf7bd0a	-0.030241508
69	0xbb178f64	-0.002312624
70	0xbd852bd8	-0.06502503
71	0x3d9184e7	0.07105427
72	0xbd9b5939	-0.07585377
73	0xbdbc1dfc	-0.091854066
74	0xbd191ed4	-0.037382916
75	0xbd1eca00	-0.03876686
76	0xbd84b098	-0.06478995
77	0xbdba1d72	-0.090876475
78	0xbd81c61c	-0.063366145
79	0x3cb5fc50	0.022215039
80	0x3bdda288	0.00676376
81	0x3dd6a27a	0.10480209
82	0x3ace14f3	0.0015722796
83	0xbd4f27be	-0.05057501
84	0x3d26b4e8	0.04069987
85	0xbd6d83cf	-0.05798703
86	0xbdfdcaa0	-0.12392163
87	0x3d7c2e49	0.06156758
88	0xbab3c070	-0.0013713967
89	0xbde04c02	-0.10951997
90	0x3d03dba5	0.03219189
91	0xbdc16b75	-0.09444324
92	0xbc417c51	-0.0118094245
93	0xbde6f03e	-0.11276291
94	0xbe65530f	-0.22394966
95	0xbc7de723	-0.015497002
96	0xbd80eb30	-0.062948585
97	0xbe0eee6d	-0.1395814
98	0xbd8a014a	-0.06738527
99	0x3beabe6b	0.007163813
100	0xbc70743e	-0.014676152
101	0x3da131c1	0.07870818
102	0xbd50140f	-0.05080038
103	0x3dac64a7	0.084176354
104	0x3cc85bbe	0.024457809
105	0xbda67207	-0.08127218
106	0xbd269285	-0.040667076
107	0xbd0acfa0	-0.033889413
108	0x3bc36011	0.0059623797
109	0xbb4ef78b	-0.0031580653
110	0xbd94bebf	-0.072629444
111	0xbe114d1c	-0.14189571
112	0xbdc7a2ef	-0.09747874
113	0xbdbc41c0	-0.09192228
114	0xbd094b24	-0.033518925
115	0xbd969622	-0.07352854
116	0xbcc65540	-0.024210572
117	0xbe154157	-0.14575706
118	0x3c05cd91	0.008166687
119	0xbdd7e531	-0.10541762
120	0x3d942819	0.072342105
121	0xbcad78f3	-0.021175837
122	0xbe247c7d	-0.16063114
123	0xbcdf0407	-0.0272236
124	0x3d21cf05	0.03950407
125	0xbc5b0132	-0.013366984
126	0xbd50dff4	-0.05099483
127	0xbd4b6cf0	-0.049664438
128	0x3c2881ef	0.010284885
129	0x3d3729d1	0.044717614
130	0xbd9f53c4	-0.07779649
131	0xbd62cf0b	-0.055373233
132	0xbd1c30d1	-0.038132492
133	0x3d06884c	0.032844827
134	0xbe033cac	-0.12816113
135	0xbd895b5d	-0.06706879
136	0x3c23e0dc	0.010002341
137	0xbd936ab3	-0.07198086
138	0xbc69d830	-0.0142727345
139	0x3d8feb6f	0.07027327
140	0x3c62726c	0.013821226
141	0xbd48ca40	-0.049021006
142	0xbde2e5bf	-0.11078977
143	0xbd8f83a4	-0.0700753
144	0x3da5a766	0.08088569
145	0xbce49fa8	-0.027908161
146	0xbd5da990	-0.054116786
147	0x3cdbbb36	0.026822668
148	0xbd724e53	-0.059156727
149	0xbcea1b10	-0.028577358
150	0xbcc3d6a1	-0.023906054
151	0x3d7fa56a	0.06241361
152	0xbdab1281	-0.08353139
153	0xbc2ff43a	-0.0107393805
154	0x3b9b04b5	0.0047307857
155	0x3ca1e357	0.019761724
156	0x3c57e77c	0.013177749
157	0xbda2ada3	-0.07943275
158	0xbddb273c	-0.10700843
159	0x3c07b5c7	0.008283085
160	0xbc1460b9	-0.009056264
161	0xbdd30fd0	-0.1030575
162	0xbd673698	-0.05644855
163	0xbcd03cd9	-0.02541964
164	0xbdf8689b	-0.12129327
165	0xbd3d7176	-0.046250783
166	0xbdaabb19	-0.08336467
167	0xbdac5fff	-0.08416747
168	0xbdc4d54a	-0.09610994
169	0xbd4f0ca6	-0.050549172
170	0xbdbf47b5	-0.09339849
171	0xbc4479fa	-0.011991972
172	0xbe14eac4	-0.14542681
173	0x3d926fc6	0.07150225
174	0x3d886c48	0.06661278
175	0x3c76f8af	0.015073939
176	0xbdb46e04	-0.08810046
177	0x3c65e25c	0.014031019
178	0xbe3f39a0	-0.18674326
179	0xbd49f114	-0.049302176
180	0xbd15dbc0	-0.036586523
181	0x3bb6b167	0.005575347
182	0xbd9168f8	-0.07100099
183	0x3d1e475c	0.038642272
184	0x3d98e29f	0.074650995
185	0xbd743a87	-0.05962613
186	0x3d6429de	0.05570399
187	0xba201d21	-0.0006107856
188	0x3d665e39	0.0562422
189	0xbd2dd8b0	-0.042442977
190	0xbe07af4f	-0.13250469
191	0x3d3ebd98	0.04656753
192	0x3c4a9bd3	0.012366253
193	0x3c96792a	0.018368322
194	0xbc675735	-0.014119913
195	0xbd14b47b	-0.036304932
196	0xbd63dd22	-0.05563081
197	0xbca56fcd	-0.020194912
198	0xbd2f605c	-0.042816505
199	0xbd94eaad	-0.07271323
200	0xbda71b46	-0.08159499
201	0xba6ecf6c	-0.0009109888
202	0xbdd06615	-0.101757206
203	0xbd409594	-0.04701765
204	0x3d19b952	0.03753025
205	0xbd92fad6	-0.071767494
206	0x3d508705	0.050910015
207	0xbd509560	-0.050923705
208	0xbc800bf2	-0.015630696
209	0xbd23336b	-0.039843958
210	0xbd8f0b62	-0.06984593
211	0xbb91b606	-0.0044467477
212	0x3d39887d	0.04529618
213	0xbd09f751	-0.033683125
214	0x3be59ad3	0.007006982
215	0xbd8aff34	-0.067869574
216	0x3acda64a	0.0015689817
217	0xbe213d7f	-0.15746115
218	0xbd981fdf	-0.07427954
219	0xbcf8cff6	-0.030372601
220	0xbc2580ca	-0.0101015065
221	0xbdae0498	-0.0849697
222	0xbcdac4a1	-0.026705088
223	0xbd0d97f1	-0.03456873
224	0xbcd92c17	-0.026510281
225	0xbaaeb3f8	-0.0013328781
226	0xbd9986de	-0.07496427
227	0x3b07ffbf	0.0020751802
228	0xbd8530d8	-0.06503457
229	0xbb98221e	-0.004642739
230	0x3db1d56e	0.086832866
231	0xbd07994c	-0.03310518
232	0x3c4760cf	0.012169077
233	0xbda5e7c0	-0.081008434
234	0x3dc23be5	0.0948408
235	0xbde43550	-0.11142981
236	0xbd6bf237	-0.05760404
237	0xbca570f7	-0.020195467
238	0xbcc43125	-0.023949215
239	0x3d892408	0.066963255
240	0xbd29bbce	-0.04143887
241	0xbde42744	-0.11140302
242	0x3c00e005	0.00786591
243	0xbe4e062d	-0.20119543
244	0xbe1671d8	-0.14691865
245	0x3d8ffba8	0.070304215
246	0xbc6fc4ea	-0.01463435
247	0xbdd13b3d	-0.10216377
248	0xbd6bd3a4	-0.057574883
249	0x3d264096	0.040588938
250	0xbbee05f5	-0.0072638937
251	0xbe5a5e38	-0.21325004
252	0xbc41bd0f	-0.01182486
253	0xbd608b87	-0.054820564
254	0x3a83f9c0	0.0010068938
255	0xbc805bd2	-0.015668783

weight f4 [128, 256]
0	0x3c891287	0.016732467
1	0xbd06d3aa	-0.032916702
2	0x3d36fca9	0.04467455
3	0xbd813f02	-0.06310846
4	0xbd28c05c	-0.041199073
5	0xbd31531a	-0.043292142
6	0x3dcc20f7	0.09967225
7	0xbe05f702	-0.13082507
8	0xbd3fefd4	-0.046859577
9	0xbcb743a5	-0.022371123
10	0x3c8d3119	0.017235326
11	0x3d62c8d1	0.055367295
12	0x3d0cb730	0.03435439
13	0xbdf9f3ed	-0.12204728
14	0xbdb5af23	-0.08871295
15	0xbda5dce4	-0.08098772
16	0xbc1072ef	-0.008816465
17	0x3b8d4427	0.004311103
18	0x3d65418d	0.055970717
19	0xbdc9e545	-0.09858183
20	0x3d9cbbe0	0.07653022
21	0xbdd33cbc	-0.103143185
22	0x3d8ff66e	0.070294246
23	0xbc82fcdc	-0.015989713
24	0xbd7b17f4	-0.06130214
25	0xbde0f18f	-0.10983574
26	0x3d809d2b	0.062799774
27	0x3cf2786c	0.029598437
28	0x3db40204	0.08789447
29	0x3d5084b4	0.050907806
30	0xbd70266f	-0.058630403
31	0x3d5bd334	0.053668216
32	0x3d57a56a	0.052647986
33	0xbe0f3888	-0.13986409
34	0xbd82348e	-0.0635768
35	0x3d05632d	0.032565285
36	0xbc4288c3	-0.011873427
37	0xbd1e7b0a	-0.038691558
38	0xbcb9a053	-0.022659456
39	0x3d090932	0.033456035
40	0x3ba3b40e	0.0049958294
41	0xbd29b7a0	-0.041434884
42	0x3daa5f69	0.08318979
43	0xbd876305	-0.06610683
44	0xbd44fe65	-0.048094172
45	0x3d93be62	0.07214047
46	0xbd84873a	-0.06471105
47	0x3cc8748e	0.02446964
48	0xbe10817f	-0.14111899
49	0x3b893ba6	0.004188019
50	0xbba7ea7d	-0.0051243887
51	0xbe8366c8	-0.25664353
52	0xbd644f93	-0.05573995
53	0x3c6f0055	0.0145874815
54	0x3a8fce2b	0.0010971477
55	0xbaa73463	-0.0012756701
56	0xbd901559	-0.07035322
57	0x3df87ba7	0.1213296
58	0x3d763db9	0.060117457
59	0x3ce0224e	0.027360108
60	0x3c3b1756	0.011419138
61	0x3cf52f40	0.029929757
62	0x3d90b786	0.07066254
63	0x3d1d74be	0.038441412
64	0x3d1838af	0.037163433
65	0xbd96d07f	-0.07363986
66	0xbe02df24	-0.12780434
67	0xbcc1d74a	-0.023662228
68	0xbdb4b0ed	-0.088228084
69	0x3b8ba86b	0.0042620203
70	0xbd492f3a	-0.049117304
71	0xbb68adb0	-0.0035503916
72	0x3d0cc1d1	0.034364525
73	0xbd21d35e	-0.039508216
74	0x3ddb8648	0.107189715
75	0xbd1c0557	-0.03809103
76	0xbd148ec8	-0.03626898
77	0xbda8115c	-0.08206436
78	0xbdf83cc4	-0.12120965
79	0x3c9af239	0.018914329
80	0x3c6ce120	0.014457971
81	0x3ba5f53d	0.005064635
82	0x3d11d133	0.0355999
83	0x3c426d37	0.011866859
84	0xbd48e2c5	-0.04904439
85	0xbc2d36fe	-0.010572193
86	0x3c246c7e	0.010035632
87	0xbce1161c	-0.027476363
88	0xbe2f775c	-0.17135376
89	0xbdeb8c6b	-0.11501392
90	0xbdb651b2	-0.08902301
91	0xbdc134e2	-0.09433915
92	0x3cecbbbf	0.028898118
93	0xbc531205	-0.012882714
94	0xbd567a99	-0.052363012
95	0xbbe6a90e	-0.007039196
96	0x3cccfbe7	0.02502246
97	0x3d0958e9	0.033532057
98	0x3d3aa710	0.04556948
99	0xbe19fb58	-0.15037286
100	0xbdc03480	-0.093850136
101	0x3dd99151	0.1062342
102	0x3d7cfd2f	0.061764892
103	0x3cc1eb2d	0.02367171
104	0xbcdc2dea	-0.026877362
105	0xbd495b76	-0.04915949
106	0xb9d321c6	-0.0004027022
107	0xbe08733e	-0.13325211
108	0xbdb2260e	-0.086986646
109	0xbd300464	-0.042972937
110	0xbe025bbc	-0.12730306
111	0xbcfd0dbd	-0.03089034
112	0x3d3429e0	0.043985248
113	0x3db557e2	0.08854653
114	0xbd648c96	-0.055798136
115	0xbca69321	-0.020333828
116	0xbdaaa508	-0.083322585
117	0xbdb4c7f0	-0.088271976
118	0x3c065116	0.008198043
119	0xbce37dea	-0.027770001
120	0xbce810cd	-0.028328324
121	0xbbc33cdc	-0.0059581827
122	0x3d07f4de	0.033192508
123	0x3d527c62	0.051388152
124	0x3d919101	0.071077354
125	0xbcd94921	-0.026524128
126	0xbd9bfde4	-0.07616785
127	0xbe076878	-0.13223445
128	0x3c099003	0.0083961515
129	0xbd70ec30	-0.058818996
130	0xbd8284ff	-0.06373023
131	0xbd3e54d7	-0.04646763
132	0x3d7d7742	0.06188131
133	0xbc043a05	-0.008070474
134	0xbd902934	-0.07039109
135	0xbdaeb8e9	-0.085313626
136	0x3c7c2ece	0.0153920185
137	0x3dd56dd9	0.104213424
138	0xbd90d2a3	-0.07071426
139	0xbd0c5eaa	-0.034269966
140	0xbd424f0c	-0.047438666
141	0x3d503bdb	0.050838333
142	0xbd04e36c	-0.03244345
143	0xbd190151	-0.03735477
144	0x3d5b5f46	0.053557657
145	0x3cd55bdc	0.026044779
146	0x3d90af06	0.07064633
147	0x3d84f302	0.064916626
148	0x3d35a87e	0.04435014
149	0xbb884881	-0.0041590338
150	0xbad5c975	-0.0016310649
151	0xbd4d1f9e	-0.05007898
152	0xbd86f59c	-0.06589815
153	0xbdc4fca5	-0.096185006
154	0x3de4eff1	0.11178578
155	0x3d97d8e9	0.07414419
156	0x3c78c71f	0.015184193
157	0x3ca82be2	0.020528737
158	0x3bb7e954	0.0056125317
159	0xbddcaaca	-0.10774763
160	0x3d3f4523	0.046696793
161	0xbdc8dbf8	-0.09807581
162	0x3ceeb866	0.029140662
163	0x3cbc44ee	0.022982087
164	0xbd57e947	-0.052712705
165	0x3ca87fbf	0.020568727
166	0x3c7bf479	0.015378111
167	0x3dc0ea11	0.094196446
168	0x3cf3bc5a	0.029752899
169	0x3b570e0e	0.0032814774
170	0xbcc8ef60	-0.024528205
171	0x3d8a376f	0.06748854
172	0xbd0c2999	-0.034219358
173	0xbd780487	-0.060551193
174	0xbda3ca29	-0.07997543
175	0x3d95679a	0.07295151
176	0xbd9c0a16	-0.07619111
177	0x3d45b1ac	0.048265144
178	0xbd3dd51b	-0.04634581
179	0x3d5c3852	0.05376465
180	0x3c419d0f	0.011817231
181	0x3dba3caf	0.09093606
182	0xbd6fedde	-0.058576457
183	0xbdbcb695	-0.09214512
184	0x3dbc6d4f	0.092005365
185	0xbcaaebe2	-0.02086443
186	0xbc724d00	-0.014788866
187	0xbe639fa3	-0.22228865
188	0x3d017083	0.03160144
189	0x3da66111	0.08123983
190	0x3d89415c	0.067019194
191	0xbe73b2f9	-0.23798741
192	0xbd9a0b66	-0.07521705
193	0xbd2d1163	-0.04225291
194	0x3c1db62a	0.009625951
195	0x3d86055c	0.06543991
196	0xbd88c5a3	-0.06678321
197	0x3cb0719f	0.021538554
198	0xbe357b21	-0.17722751
199	0xbd79d482	-0.06099368
200	0x3c31fa47	0.010862893
201	0x3ddd6468	0.108101666
202	0xbca8df71	-0.020614358
203	0xbc8bc7fa	-0.01706313
204	0x3d60b422	0.054859288
205	0xbc1c0e50	-0.009524897
206	0x3d0c7281	0.034288887
207	0x3d17c157	0.037049618
208	0x3da60438	0.081062734
209	0x3d990e4f	0.07473432
210	0x3ab8a753	0.0014087952
211	0xbd987549	-0.07444245
212	0xbdc7f736	-0.097639486
213	0xbda38808	-0.0798493
214	0x3bc208a1	0.005921439
215	0xbd2f4e6c	-0.0427994
216	0xbaf700d7	-0.0018844855
217	0x3b92d38b	0.0044807843
218	0xbda08f00	-0.07839775
219	0xbd11e12a	-0.035615124
220	0x3d585642	0.052816637
221	0xbb32004d	-0.0027160824
222	0x3cc021a0	0.023453534
223	0x3ca1da4e	0.019757416
224	0x3d00a398	0.031406015
225	0xbe5b93ae	-0.21443054
226	0xbd347ce4	-0.044064417
227	0x3cb3c44e	0.021944191
228	0x3bdc2409	0.006718163
229	0xbd3a0c12	-0.045421667
230	0xbba30b56	-0.0049757166
231	0x3d080084	0.033203617
232	0x3ddc1981	0.10747052
233	0xbdbf9085	-0.09353737
234	0x3d52c7ce	0.05146008
235	0xbc7cfce8	-0.015441157
236	0xbb5bfd22	-0.0033567627
237	0x3dbb9dd2	0.09160961
238	0xbca1e0be	-0.019760486
239	0x3cdfded0	0.027327925
240	0xbd8998e6	-0.06718616
241	0x3d48058c	0.048833415
242	0x3d751ebb	0.05984376
243	0x3d4a061b	0.04932223
244	0xbd79b2ac	-0.06096141
245	0x3d94c090	0.07263291
246	0x3d8824ec	0.06647667
247	0x3e294778	0.1653117
248	0xbda2b4a8	-0.07944614
249	0xbd29bd72	-0.041440435
250	0x3d24c6a5	0.040228505
251	0xbd38b8c3	-0.045098078
252	0xbcfcb533	-0.030848121
253	0x3dc0ff05	0.09423641
254	0xbdb4e526	-0.08832769
255	0x3c72ffde	0.014831511

bias f4 [128]
0	0x3c989506	0.018625747
1	0x3d6b2307	0.05740645
2	0xbd9aae77	-0.07552808
3	0x3d480d0a	0.04884056
4	0xbd8267dc	-0.06367466
5	0xbd4a87ed	-0.049446035
6	0x3dac031d	0.08399031
7	0x3d5312cb	0.051531594
8	0xbd7e4ddd	-0.062085975
9	0xbd73cea5	-0.059523243
10	0x3d82036d	0.0634831
11	0xbe100a62	-0.1406646
12	0x3d9baca4	0.07601288
13	0xbc888760	-0.016666114
14	0x3c2473ee	0.010037405
15	0xbdea498c	-0.11439809
16	0x3d6dc67c	0.058050618
17	0x3d87df9e	0.066344485
18	0xbd9277c9	-0.071517535
19	0xbc2834cd	-0.010266495
20	0x38fe06f1	0.00012112957
21	0xbb71d2a9	-0.0036899245
22	0xbd6d191d	-0.057885278
23	0x3c810911	0.015751394
24	0x3c419ad1	0.011816696
25	0xbdb8c213	-0.09021392
26	0xbdf89e66	-0.12139587
27	0x3db9b76a	0.090681866
28	0xbd91e9b1	-0.07124651
29	0xbc72a59a	-0.01480999
30	0x3d09276e	0.03348487
31	0xbd9da91c	-0.07698271
32	0xbd8fb54c	-0.070170015
33	0xbd9d0732	-0.07667388
34	0xbe2d6416	-0.16932711
35	0xbd743143	-0.059617292
36	0xbde75c66	-0.112969205
37	0x3ce304fa	0.027712334
38	0x3d3a2d06	0.045453094
39	0xbd6b97e3	-0.057517897
40	0xbc454994	-0.012041468
41	0x3d3c4f04	0.045973793
42	0xbd807790	-0.06272805
43	0x3d6998fd	0.057030667
44	0xbd71e0f9	-0.05905244
45	0x3da9bb27	0.082876496
46	0x3c7477a6	0.014921105
47	0x3d6225b4	0.055211738
48	0xbd286c67	-0.041119006
49	0xbb8ce663	-0.004299925
50	0xbe2d7637	-0.16939627
51	0x3cc62e8a	0.024192113
52	0xbcfad588	-0.030619398
53	0xbc6577f1	-0.014005647
54	0xbe1c73b4	-0.15278512
55	0xbd6055ef	-0.054769453
56	0xbd947e6d	-0.07250676
57	0xbc746fa1	-0.0149191925
58	0x3d9e7c54	0.077385575
59	0xbd6b3a0e	-0.057428412
60	0xbbfa3b61	-0.007636473
61	0x3cf8ec8b	0.03038623
62	0xbd179e4a	-0.03701619
63	0xbd2fc0d3	-0.0429085
64	0xbe2a9db6	-0.16661724
65	0xbe33e52b	-0.1756789
66	0xbdb1aa2b	-0.08675035
67	0xbd699f33	-0.05703659
68	0x3bc4c575	0.006004984
69	0xbd8b2c77	-0.0679559
70	0x3c829a92	0.015942845
71	0xbceda474	-0.029009081
72	0x3d655e2b	0.05599801
73	0xbc9eff9b	-0.019408992
74	0xbe3b1abd	-0.18271919
75	0xbd80e472	-0.062935725
76	0x3cb6d5cc	0.022318743
77	0xbc63636e	-0.013878686
78	0xbe2d67fe	-0.16934201
79	0x3d09d809	0.033653293
80	0xba09f2dd	-0.00052623247
81	0xbb664523	-0.0035136424
82	0x3c21b26f	0.009869202
83	0xbd13373e	-0.035941355
84	0x3c9ff94e	0.019528057
85	0x3d33fe95	0.04394396
86	0xbce2fc05	-0.027708063
87	0xbdcbce6e	-0.09951483
88	0x3ce6352e	0.02810153
89	0x3c2a1de0	0.010383099
90	0xbd8f2577	-0.06989568
91	0x3c74e638	0.014947467
92	0xbc9f3f01	-0.019439222
93	0x3dac86ec	0.08424172
94	0x3dcd02de	0.100103125
95	0xba8989b5	-0.001049331
96	0x3c84a805	0.0161934
97	0x3ccdc56a	0.025118548
98	0xbe040ded	-0.12895937
99	0x3d25a8e9	0.04044429
100	0xbd001678	-0.031271428
101	0xbda62bc7	-0.081138186
102	0xbda4e2d7	-0.08051079
103	0xbd9819f5	-0.07426826
104	0x3d536a97	0.051615324
105	0x3cfe7f75	0.031066636
106	0xbd7a7ae1	-0.061152343
107	0x3d4183ac	0.047244713
108	0x3c00e8a6	0.007867968
109	0x3db3003d	0.0874028
110	0xbdf81d63	-0.1211498
111	0xbd8b8e8c	-0.06814298
112	0x3da24855	0.079239525
113	0xbd4dd729	-0.05025402
114	0xbccaf9f1	-0.024777384
115	0xbd0a60d0	-0.033783734
116	0xbc021c2f	-0.00794129
117	0x3d11b1b3	0.035569858
118	0x3ce05a73	0.02738688
119	0xbd8f8d57	-0.0700938
120	0xbc5bd37e	-0.013417123
121	0xbd70d92b	-0.058800858
122	0xbd3fdbbe	-0.04684042
123	0xbe0cff18	-0.13769186
124	0x3da48ead	0.08035026
125	0xbd21ef74	-0.039535
126	0x3db312ac	0.08743796
127	0xbc0bc8aa	-0.008531729

weight f4 [4, 128]
0	0x3d9de610	0.077098966
1	0xbd9fbe42	-0.07799961
2	0x3e0c602c	0.13708562
3	0x3da950a7	0.08267336
4	0x3d9b33ec	0.07578263
5	0x3e02d526	0.12776622
6	0xbd752352	-0.059848137
7	0xbd1ac82f	-0.037788566
8	0x3cc0678b	0.023486873
9	0xbceb7b0d	-0.028745199
10	0x3e1196cf	0.14217685
11	0x3d95a40f	0.07306682
12	0xbd9d4dde	-0.076808676
13	0x3ca2e1dc	0.019883089
14	0xbd9a5170	-0.07535064
15	0x3d8976e9	0.067121334
16	0xbc0f672c	-0.008752625
17	0xbcfd6aa6	-0.030934643
18	0x3d6459dd	0.055749763
19	0x3cceba0f	0.025235204
20	0x3d5fae1c	0.054609403
21	0x3d20b2ca	0.039233007
22	0x3ca9cffa	0.020729054
23	0xbd560564	-0.052251235
24	0xbb26a1aa	-0.002542595
25	0x3df0980e	0.11747752
26	0x3d88bab7	0.06676238
27	0x3cfeb07f	0.03109002
28	0x3d13cfc8	0.036086828
29	0xbde4ef96	-0.1117851
30	0xbdaceb85	-0.08443359
31	0xbcfd2416	-0.030900996
32	0x3d35df48	0.04440239
33	0x3bb8f775	0.0056447336
34	0x3daf47fd	0.085586525
35	0x3dc84c29	0.097801514
36	0x3d9d5e0e	0.07683955
37	0x3c0481e2	0.008087607
38	0x3da6d75d	0.08146546
39	0x3d4407a5	0.047858853
40	0x3d63f526	0.055653714
41	0x3deb2c08	0.11483008
42	0x3d92f27e	0.07175158
43	0x3dffe9f1	0.12495793
44	0x3dd84233	0.105595015
45	0x3ba83327	0.005133051
46	0x3dff085d	0.12452767
47	0xbdd29de3	-0.10284021
48	0x3d8698dd	0.06572125
49	0x3d9c915d	0.07644913
50	0x3d8e3962	0.06944539
51	0x3db4937b	0.08817192
52	0xbd89c381	-0.067267425
53	0xbd4e87ca	-0.050422467
54	0x3d7fde06	0.062467597
55	0xbca05f64	-0.019576736
56	0x3d689a95	0.056788046
57	0x3de1ac4c	0.11019191
58	0x3d38315d	0.04496895
59	0x3d395375	0.045245606
60	0x3d6eba34	0.058283046
61	0xbd5acfd1	-0.053420845
62	0x3db4eb68	0.08833963
63	0xbc53913f	-0.012913047
64	0x3df9f7a6	0.12205438
65	0x3dcdc60d	0.10047541
66	0x3daa87a3	0.08326652
67	0x3d512db8	0.05106899
68	0x3d59601c	0.053070173
69	0x3e37c1e3	0.17945056
70	0xbd8f5267	-0.06998139
71	0xbbb779e4	-0.0055992473
72	0xbd453b95	-0.048152525
73	0x3baad861	0.0052137827
74	0x3dc6cbd7	0.09706848
75	0x3ddb3e2b	0.10705217
76	0xbd63ff8c	-0.05566363
77	0x3ceb351c	0.028711848
78	0x3db58967	0.08864098
79	0x3dbe5589	0.09293658
80	0x3d98615f	0.07440447
81	0x3b40501f	0.002934463
82	0xbd3e900f	-0.046524104
83	0x3e01bfd1	0.12670828
84	0x3d8334e6	0.06406574
85	0xbd3a94ce	-0.045552067
86	0xbd224d7e	-0.039624684
87	0x3cfd9179	0.030953156
88	0x3cc85546	0.024454724
89	0x3d4b1b66	0.049586676
90	0x3dc36c99	0.09542198
91	0x3d9df286	0.07712273
92	0xbd02b5e3	-0.031911742
93	0xbd034f67	-0.032058146
94	0x3d5515e7	0.05202284
95	0xbdb69b6f	-0.08916365
96	0xbd64132c	-0.055682346
97	0x3e2ba242	0.16761115
98	0x3cc19dcd	0.023634816
99	0x3d9988cf	0.07496797
100	0x3dacace4	0.08431414
101	0x3d75c9bf	0.060006853
102	0x3dad5668	0.08463746
103	0x3c752889	0.014963278
104	0x3de1bf10	0.110227704
105	0x3d01d750	0.03169948
106	0x3e0164e5	0.12636144
107	0xbd077cf7	-0.03307816
108	0x3cfd6ca1	0.030935587
109	0xbde62320	-0.11237168
110	0x3cd7e379	0.026353585
111	0xbd3a966d	-0.045553613
112	0x3dd41b67	0.10356789
113	0xbc36f438	-0.011166625
114	0x3d3f5cc5	0.04671933
115	0x3dfcc0a0	0.12341428
116	0xbd6f5a55	-0.058435757
117	0x3d2411c4	0.040056005
118	0x3d38843d	0.045047987
119	0x3db09421	0.08622003
120	0x3bef24e8	0.0072981007
121	0x3d4be605	0.04977991
122	0x3dc13764	0.09434393
123	0x3d887d2d	0.066645004
124	0xbd156d0d	-0.036480952
125	0xbd910ef5	-0.07082931
126	0xbd41987f	-0.047264572
127	0x3cd913e0	0.026498735
128	0xbd7554c8	-0.059895307
129	0x3d600584	0.05469276
130	0xbd3c41ab	-0.045961063
131	0x3db90036	0.09033243
132	0x3d6dd73a	0.058066584
133	0x3cbf56b7	0.023356779
134	0x3d2fab4c	0.04288797
135	0xbc744b80	-0.014910579
136	0xbcb446cf	-0.02200642
137	0x3d00dd07	0.031460788
138	0x3d2d6f5b	0.042342525
139	0xbd196d8b	-0.037457984
140	0xbd6189d6	-0.05506309
141	0xbcd39170	-0.025826186
142	0x3ce762ed	0.028245414
143	0xbc23718e	-0.009975804
144	0xbc36a276	-0.011147132
145	0xbdaa8fc6	-0.08328204
146	0x3d244c96	0.0401121
147	0xbc7d8c72	-0.015475379
148	0x3d81afcf	0.06332361
149	0x3dbf74eb	0.09348472
150	0xbcd14d6a	-0.02554961
151	0xbd12add5	-0.03581031
152	0x3df3db36	0.119070455
153	0x3d6d4b0f	0.05793291
154	0x3d270f83	0.040786278
155	0x3cf00cbb	0.029302945
156	0xba9f72fe	-0.0012165008
157	0x3dae977e	0.085249886
158	0xbd1f2056	-0.038849197
159	0x3c99d13f	0.018776534
160	0xbcbc530e	-0.022988822
161	0xbcce1757	-0.025157614
162	0xbd10b269	-0.035326395
163	0xbd1de408	-0.038547546
164	0xbd8c925b	-0.068638526
165	0x3df3cd10	0.11904347
166	0x3da7cd4d	0.08193455
167	0xbc293426	-0.010327375
168	0x3dceaa98	0.10091132
169	0x3d0be395	0.034152586
170	0xbc56c381	-0.013108135
171	0x3da66776	0.08125202
172	0xbd0f9294	-0.035051897
173	0xbdf177e9	-0.11790449
174	0xbcba8982	-0.022770647
175	0x3d1413f8	0.036151856
176	0xbd820189	-0.06347949
177	0xbd717f90	-0.058959544
178	0xbc9970c5	-0.01873053
179	0x3da00462	0.07813336
180	0x3d260388	0.04053071
181	0x3c35b11c	0.011089589
182	0x3d0a54ca	0.033772267
183	0x3ce0e88e	0.02745464
184	0x3cd45f66	0.025924396
185	0x3e17465a	0.1477293
186	0xbd39487b	-0.04523514
187	0xbc0093ef	-0.00784777
188	0x3d5e47c2	0.054267652
189	0x3c41e248	0.011833735
190	0x3e0f1173	0.139715
191	0xbc5a5483	-0.013325813
192	0x3c988c94	0.01862172
193	0xbba089b2	-0.004899227
194	0x3d98b07f	0.07455539
195	0xbd162b14	-0.036662176
196	0x3d9f2a11	0.077716954
197	0x3e04cdc9	0.12969126
198	0xbb4656d1	-0.003026415
199	0x3d6076b4	0.054800704
200	0xbdd4e3ad	-0.10394988
201	0x3d47186f	0.048607286
202	0xbd8abb76	-0.067740366
203	0x3a79eb6e	0.0009533678
204	0xbcf30d89	-0.02966954
205	0x3c0ab048	0.00846488
206	0xbc3194a8	-0.010838665
207	0xbe0df986	-0.13864717
208	0xbe34062f	-0.17580484
209	0xbd90727c	-0.07053086
210	0xbd8d0d79	-0.06887335
211	0x3d6b9b7a	0.05752132
212	0x3c919eaa	0.017775852
213	0xbdac01ba	-0.08398767
214	0xbd82c19e	-0.06384586
215	0xbc6040f9	-0.013687366
216	0x3d8df42c	0.06931338
217	0x3d3acb9f	0.045604344
218	0x3d0fcda6	0.03510823
219	0x3d67f4db	0.056629997
220	0xbbf46d4e	-0.007459319
221	0x3cf0c7f5	0.029392222
222	0xbd319333	-0.04335327
223	0xbd72c545	-0.059270162
224	0xbdf6e929	-0.120561905
225	0x3c3d200d	0.011543286
226	0xbc873e66	-0.016509246
227	0xbded0080	-0.11572361
228	0xbbc7a360	-0.006092474
229	0x3b9cf822	0.004790322
230	0x3ce89e36	0.028395753
231	0xbd6ee303	-0.058321964
232	0x3d8275e5	0.06370143
233	0xbc0d47b2	-0.0086230505
234	0xbd1e70cb	-0.038681787
235	0x3e0ee32b	0.13953845
236	0x3e5dbad3	0.21653299
237	0xbd114820	-0.035469174
238	0x3c13055c	0.008973446
239	0x3bdaa991	0.006673046
240	0x3cb4db93	0.022077357
241	0xbd5236c0	-0.051321745
242	0xbb0fbd1d	-0.0021932789
243	0x3c07fca0	0.008299977
244	0x3d0db951	0.03460056
245	0x3c7aaf41	0.015300573
246	0x3d575b1a	0.052577116
247	0xbd0118c9	-0.031517778
248	0xbd09d547	-0.033650663
249	0x3c6a8c11	0.014315621
250	0x3c295f3b	0.010337646
251	0x3c0f9146	0.008762663
252	0xbd956a5a	-0.072956756
253	0x3ce5a910	0.028034717
254	0x3d49a301	0.04922772
255	0xbd147990	-0.036248744

bias f4 [4]
0	0xbe2f7b76	-0.1713694
1	0x3c939fbf	0.018020509
2	0xbdbea3fa	-0.0930862
3	0xbd85d95c	-0.06535599
